app/src/main/assets/model.tflite (tflite, 21716 bytes, 6 tensors)

sequential_3/dense_10/BiasAdd/ReadVariableOp/resource f4 [64]
0.063024245 0.079659864 0.0030689267 -0.04483386 0.14286827 0.04970619 0.03907719 0.02819586
0.13669732 0.230528 -0.1536724 -0.11648141 -0.26415163 -0.014583279 0.12262165 -0.02934226
-0.33920214 -0.23545 0.03385828 0.01888413 -0.39658594 -0.08914201 0.35394064 0.38178235
-0.063524 -0.11975445 0.37353733 -0.1630976 0.005762324 0.108153865 -0.12493327 0.058575254
-0.041993976 0.12145015 0.9666403 0.1999904 -0.5002017 0.22920027 -0.08749133 -0.12691268
0.02919911 -0.6962566 -0.06767015 -0.18739991 0.18164031 0.06862107 0.39923418 -0.012950261
0.12431671 -0.7857342 0.99728346 0.35274735 -0.39876875 -0.13911225 0.45405263 0.22457005
0.2787153 -0.63203025 -0.11253701 0.2450666 -0.07048559 -0.48908016 -0.14809993 0.38264298
00000000: db12 813d b624 a33d 0c20 493b b6a3 37bd
00000010: 0f4c 123e b898 4b3d 670f 203d 01fb e63c
00000020: 62fa 0b3e 880f 6c3e 4c5c 1dbe ce8d eebd
00000030: e23e 87be b5ee 6ebc 0f21 fb3d 2e5f f0bc
00000040: e7ab adbe ce19 71be fbae 0a3d e4b2 9a3c
00000050: 500d cbbe 1690 b6bd b537 b53e fa78 c33e
00000060: df18 82bd d241 f5bd 4940 bf3e 0f03 27be
00000070: e1d1 bc3b c67f dd3d 04dd ffbd 9bec 6f3d
00000080: e001 2cbd dbba f83d bd75 773f 49ca 4c3e
00000090: 380d 00bf 7ab3 6a3e a82e b3bd 66f5 01be
000000a0: f932 ef3c df3d 32bf a696 8abd c3e5 3fbe
000000b0: ebff 393e 3489 8c3d 6c68 cc3e 552d 54bc
000000c0: c299 fe3d e025 49bf f84d 7f3f 4d9b b43e
000000d0: 6b2b ccbe 7173 0ebe 9679 e83e b1f5 653e
000000e0: c6b3 8e3e bccc 21bf ce79 e6bd bdf2 7a3e
000000f0: c05a 90bd b768 fabe 82a7 17be c8e9 c33e

sequential_3/dense_11/BiasAdd/ReadVariableOp/resource f4 [5]
0.13399766 0.019438062 -0.2785648 0.22390231 -0.11256828
00000000: af36 093e 923c 9f3c 0ca0 8ebe a646 653e
00000010: 338a e6bd

sequential_3/dense_9/BiasAdd/ReadVariableOp/resource f4 [64]
-0.33023942 -0.49086586 -0.7198949 -0.62509084 0.05614049 -0.4487053 0.69293106 -0.2462728
-0.45485532 -0.4950484 0.19039258 -0.31223407 -0.057931527 0.016639484 -0.15343888 -0.24194711
0.31386286 -0.2977578 -0.0020832284 0.50285906 0.4202715 -0.22184911 -0.019328415 0.74675494
-0.9199762 0.0 -0.34198484 -0.09735818 -0.054854833 -0.3671312 0.0977648 0.5309687
0.5145219 0.31441912 -0.011650657 0.43032107 0.5770464 -0.22809882 0.06531875 -0.10131309
0.58119804 0.19718221 0.6599202 -0.49508637 0.002799121 -0.024181413 0.6989837 -0.30701336
-0.27774328 0.51730573 0.10168811 0.15027957 -0.27629662 0.23066051 -0.47803572 0.29892623
-0.4965078 -0.0041524903 -0.016127238 0.46172926 0.332473 -0.55266225 0.10941392 0.6320081
00000000: 2415 a9be c552 fbbe 084b 38bf f405 20bf
00000010: 92f3 653d b3bc e5be ee63 313f f02e 7cbe
00000020: cce2 e8be fc76 fdbe 46f6 423e 25dd 9fbe
00000030: 9c49 6dbd 874f 883c 151f 1dbe fcc0 77be
00000040: a2b2 a03e b673 98be c686 08bb 5fbb 003f
00000050: d32d d73e 6a2c 63be a056 9ebc 552b 3f3f
00000060: 8f83 6bbf 0000 0000 a318 afbe ba63 c7bd
00000070: 76af 60bd 9ff8 bbbe e938 c83d 91ed 073f
00000080: b5b7 033f 8bfb a03e 66e2 3ebc 0b53 dc3e
00000090: 50b9 133f bd92 69be d6c5 853d 3d7d cfbd
000000a0: 65c9 143f 22ea 493e 88f0 283f f67b fdbe
000000b0: 7571 373b 1918 c6bc 99f0 323f db30 9dbe
000000c0: 5e34 8ebe 266e 043f db41 d03d e3e2 193e
000000d0: c076 8dbe 4532 6c3e 19c1 f4be dc0c 993e
000000e0: 4536 febe 9d11 88bb 451d 84bc c767 ec3e
000000f0: e739 aa3e 467b 0dbf 6814 e03d 48cb 213f

sequential_3/dense_10/MatMul f4 [64, 64]
0.45498797 -0.10317486 -0.05761994 0.12092557 0.08182923 0.19197129 0.3177803 -0.18877913
0.34241632 0.44767016 -0.8397256 -0.13895346 0.5308742 -0.0048037926 0.002099576 -0.1771118
-0.16211577 0.07238663 0.24697974 0.14187399 0.03450026 -0.22146858 -0.23639685 0.16480574
-0.28681514 0.13222493 0.047112294 0.18133159 0.3198085 -0.26921478 0.10049976 0.08133901
0.11188428 -0.2626873 -0.34454522 0.3237105 0.060312804 0.2417063 0.13251597 0.104062185
-0.37287012 -0.41650522 0.5565805 0.11600796 -0.0037475203 0.09704494 -0.36831722 0.23143175
0.029103223 0.17431988 0.19288455 0.11473229 -0.06553374 0.054589044 0.012696486 0.34433115
0.48986912 0.2855472 -0.18590389 -0.53358394 0.13712925 -0.14928082 0.16453037 -0.19829701
-0.13238226 0.01873408 -0.014729046 -0.25468475 0.6800309 0.01811036 0.12539835 0.033859897
-0.24639052 0.5268646 -1.3091712 0.08776879 -0.28587174 0.040196106 0.007795324 0.0065399413
0.03990526 0.23105158 -0.25745025 -0.06938818 -0.24961296 0.09798375 -1.2038026 0.8154318
-0.043652475 -0.1771209 0.17912483 0.0963987 -0.13345107 -0.11467974 0.38057974 -0.18033981
0.8055034 0.70855016 0.45458528 -0.14485103 -0.09013628 0.12467914 0.36326677 0.04865338
0.40655887 0.10023159 0.31711757 -0.21521759 -0.45425513 0.054956403 0.5464365 0.3055265
-0.2791537 -0.21743365 0.24203096 -0.3585841 -0.01912127 -0.35107225 0.3887422 0.10372992
-0.10516351 -1.3362936 -0.0140673 0.4705955 -0.15634738 -0.36836973 -0.068038814 0.068395324
-0.10118183 0.19241637 0.020902632 0.05977958 0.43416268 -0.24074955 0.15861893 0.46730623
0.34341204 -0.26030654 0.32640466 0.36311492 0.6108383 -0.2780016 -0.13235176 -0.23176293
0.072728895 0.09718116 -0.0959053 0.032560997 0.117995426 0.12657836 -0.24430558 -0.20135452
-0.46143433 0.09002109 0.24117218 -0.26203611 0.13301359 1.0056639 -0.8055997 0.29793888
0.5251877 0.5985208 0.48059863 -0.40125722 -1.1062533 0.115345985 -0.31498858 0.055146296
-0.43284085 0.3343607 -0.14950404 -0.36131334 0.16983588 0.5156044 -1.1859742 0.19478852
0.24701029 0.05644696 -0.11730373 0.13900208 0.13461311 0.10056091 0.321616 0.35883567
0.21207918 -0.42343938 0.07992649 0.80086344 0.0875122 -0.20639469 0.069504336 0.06134417
-0.16751868 -0.00994495 -0.2048512 -0.20253904 0.020476399 0.104344584 -0.040986374 -0.025956156
0.14040236 0.15914963 0.18158193 -0.11910758 0.14926992 -0.19853728 0.010134235 -0.106694564
0.07865078 0.11401917 -0.09046508 -0.19415358 -0.0019238321 -0.20786795 -0.13397469 -0.19487587
0.11230833 0.01875545 0.020412728 -0.08599422 -0.02334728 -0.16122273 0.08527689 -0.25872493
-0.15052368 -0.047075823 -0.0389029 -0.20685801 -0.15816918 -0.15603222 -0.09618838 -0.11504929
0.092840746 -0.23535155 0.13501959 0.13945101 -0.15331236 0.008198619 -0.26452157 -0.040811095
-0.14343715 0.04001443 -0.042506084 0.12519626 -0.17168286 -0.04996353 0.07330044 -0.05850842
-0.23521012 0.12983796 -0.06432353 0.0480963 0.19166349 0.123562075 0.15184185 -0.25628224
00000000: 2ff4 e83e 574d d3bd e302 6cbd d3a7 f73d
00000010: 1596 a73d 1f94 443e 19b4 a23e 514f 41be
00000020: 3151 af3e 0635 e53e 42f8 56bf d149 0ebe
00000030: 5fe7 073f 2269 9dbb 0a99 093b cc5c 35be
00000040: ad01 26be 713f 943d 42e8 7c3e 6a47 113e
00000050: 2550 0d3d a9c8 62be 0412 72be d6c2 283e
00000060: 6fd9 92be f965 073e d2f8 403d fdae 393e
00000070: f1bd a33e 85d6 89be d1d2 cd3d 1195 a63d
00000080: 9623 e53d f37e 86be 3b68 b0be 62bd a53e
00000090: 8f0a 773d db81 773e 44b2 073e 8e1e d53d
000000a0: d5e8 bebe 2c40 d5be 0f7c 0e3f 9595 ed3d
000000b0: f598 75bb 7fbf c63d 1394 bcbe 72fc 6c3e
000000c0: e269 ee3c e980 323e 8783 453e c3f8 ea3d
000000d0: 8e36 86bd c398 5f3d ec04 503c 2c4c b03e
000000e0: 20d0 fa3e 3e33 923e 975d 3ebe f598 08bf
000000f0: 9c6b 0c3e 12dd 18be a67a 283e 5f0e 4bbe
00000100: 378f 07be 3778 993c 1952 71bc 0a66 82be
00000110: 8116 2e3f 2d5c 943c 6d68 003e adb0 0a3d
00000120: cc4d 7cbe 99e0 063f ec92 a7bf 20c0 b33d
00000130: c85d 92be aca4 243d eb6f ff3b 014d d63b
00000140: b373 233d c998 6c3e 85d0 83be 641b 8ebd
00000150: 8a9a 7fbe b4ab c83d 3416 9abf 23c0 503f
00000160: f0cc 32bd 2e5f 35be 806c 373e ae6c c53d
00000170: 66a7 08be 36dd eabd 59db c23e 00ab 38be
00000180: 7935 4e3f 8b63 353f 67bf e83e d453 14be
00000190: 5f99 b8bd c757 ff3d 1afe b93e c448 473d
000001a0: 7c28 d03e 3846 cd3d 3c5d a23e 0062 5cbe
000001b0: 2194 e8be f719 613d 43e3 0b3f f86d 9c3e
000001c0: 3ced 8ebe eda6 5ebe f7d6 773e 5698 b7be
000001d0: 36a4 9cbc bebf b3be 3809 c73e 5a70 d43d
000001e0: f75f d7bd ab0b abbf 887a 66bc e5f1 f03e
000001f0: 8719 20be f59a bcbe ef57 8bbd d912 8c3d
00000200: 6b38 cfbd cc08 453e ff3b ab3c 6fdb 743d
00000210: 924a de3e 0d87 76be 006d 223e c342 ef3e
00000220: b4d3 af3e e646 85be 831e a73e 33ea b93e
00000230: e65f 1c3f 3a56 8ebe 3887 07be 4353 6dbe
00000240: e3f2 943d ea06 c73d ff69 c4bd ae5e 053d
00000250: 96a7 f13d c29d 013e 3e2b 7abe e12f 4ebe
00000260: 1f41 ecbe fa5c b83d d7f5 763e 9929 86be
00000270: b734 083e 98b9 803f c83b 4ebf 728b 983e
00000280: b372 063f a938 193f 0611 f63e 9671 cdbe
00000290: b599 8dbf 843a ec3d 2f46 a1be 15e1 613d
000002a0: 519d ddbe 5331 ab3e 9617 19be 10fe b8be
000002b0: 75e9 2d3e a6fe 033f 01ce 97bf a476 473e
000002c0: 44f0 7c3e ed34 673d f03c f0bd 9056 0e3e
000002d0: 05d8 093e e1f2 cd3d daaa a43e 4fb9 b73e
000002e0: 492b 593e 0ccd d8be 80b0 a33d 6305 4d3f
000002f0: 9939 b33d 2159 53be 4a58 8e3d 0644 7b3d
00000300: 048a 2bbe 25f0 22bc 83c4 51be 6566 4fbe
00000310: 1fbe a73c 9db2 d53d 54e1 27bd 01a2 d4bc
00000320: a3c5 0f3e 1ff8 223e 9df0 393e adee f3bd
00000330: 37da 183e 5b4d 4bbe 100a 263c ae82 dabd
00000340: a913 a13d e282 e93d c245 b9bd 32d0 46be
00000350: 1829 fcba 56db 54be a930 09be 8a8d 47be
00000360: e901 e63d 08a5 993c 9838 a73c bd1d b0bd
00000370: cc42 bfbc 9217 25be a6a5 ae3d 9877 84be
00000380: e122 1abe 94d2 40bd a658 1fbd 96d2 53be
00000390: 1af7 21be e9c6 1fbe 6afe c4bd f69e ebbd
000003a0: 4a23 be3d ffff 70be 9342 0a3e 3fcc 0e3e
000003b0: eafd 1cbe 8053 063c 5f6f 87be 8929 27bd
000003c0: 30e1 12be 2ce6 233d dc1a 2ebd 7333 003e
000003d0: a2cd 2fbe 8fa6 4cbd 8b1e 963d 86a6 6fbd
000003e0: ecda 70be 3ef4 043e 0ebc 83bd a000 453d
000003f0: 6f43 443e 1d0e fd3d 6e7c 1b3e 6d37 83be

sequential_3/dense_11/MatMul f4 [5, 64]
0.22764212 0.26734436 -0.17773163 0.07446229 0.23736867 0.14042675 -0.45856917 0.0072954944
1.0474086 0.36713538 -1.3118207 -3.1627553 0.03488989 0.8955165 1.6556275 0.006709283
-1.6339232 0.08971834 0.30324355 0.58537567 0.4260498 0.38127765 0.8585563 -0.2469042
0.6449976 -0.58892125 -0.5471361 0.39529973 -0.9742616 -0.49000436 -0.8927102 -2.8083875
0.8917584 -0.66817385 0.25754365 -1.0273594 -2.1590755 -0.32001773 -2.673911 0.43471032
1.2656976 -5.4080954 1.6019921 0.571813 0.30548045 0.27313277 0.575658 1.5931671
-0.41519552 -2.1073794 -0.0018992235 -0.8875028 -0.096898116 -0.1567615 -2.872756 0.6367858
-0.4416037 1.4341954 -0.55056185 0.09701314 -0.1504938 0.45149228 1.131379 -1.2662044
-0.19932261 -0.45020455 0.41401598 -0.17700106 0.4566051 -0.4148502 0.7255319 0.54226947
0.33023503 0.50088894 0.8593839 2.4099493 0.06629374 -3.113911 -3.483948 -0.094480954
-0.9588602 0.33181143 -0.654376 -0.5543583 0.13603176 -0.35188037 -0.4369283 0.6609316
-1.587968 0.016186874 -0.396073 1.6546417 -0.099346064 -0.39675784 -1.4975207 0.64775264
0.41172174 -0.2921586 0.4619629 0.62029034 1.7511871 -0.48919088 0.88751924 -1.2164954
-0.25666246 2.141955 0.06443885 -0.8877538 2.7742364 0.25785086 -1.270242 1.3717291
0.35253835 -0.51891106 -1.6006984 1.3149884 0.08103757 -0.018920561 1.1690805 0.64843476
0.5143933 -2.7731996 0.05596587 1.4173251 -0.16681868 -0.34077355 -0.5546045 0.6046045
-0.15511419 -0.674707 -0.30367807 0.039678235 0.12546802 0.721083 -1.3510638 0.3390739
1.0109926 -0.38603884 1.4739666 -1.8443015 0.69286025 0.53625774 -2.6930552 -0.051918276
2.6511467 0.14068294 0.36645034 0.2807631 0.7088806 0.41525546 -0.6886311 0.01727978
-0.94721013 0.14679554 0.48034784 -1.494902 -0.009229842 0.088939354 0.079070695 -1.0126481
1.8685999 0.72764754 -1.8212967 -0.97602093 0.77934706 -0.5814825 -1.4474466 -0.37123337
-0.52417046 -1.9429038 -3.1621957 0.44146574 -5.038462 -0.61398983 0.4002097 -4.4170756
0.11348053 0.60869527 -0.8712966 -0.66080284 0.60417813 0.38345134 -1.4658463 -0.65393776
-0.024199372 -2.8545907 -5.362598 -0.2583781 -0.08549569 0.4431896 -1.5821215 -0.75175536
-0.12042772 0.0071701137 -0.49640405 -0.19123814 -0.037397124 0.31945324 -0.827946 0.31884286
-1.5454444 0.17139564 0.6290247 1.6244662 -0.29221347 -0.15399669 0.15346181 0.10188263
-0.39892635 -0.3570423 -0.018974066 -0.04996404 -0.85607356 0.32224542 0.3976165 1.7563249
1.3553625 -0.2593058 0.87489706 0.2831628 0.3568698 0.43050152 2.092627 -1.2517625
-0.9993661 0.12950374 0.2860941 -2.1582026 0.5204763 0.89035493 1.2264189 -0.38239977
-0.4472756 1.3818959 1.4293944 -0.4233489 -2.5787842 -0.51170456 0.43206993 0.15017033
0.30443045 0.03482693 0.93479353 -0.17691134 -0.51778334 0.73130757 2.732941 -0.09427437
0.36706558 0.46003097 0.32657114 -3.6265295 0.2053613 -1.0460413 -0.91528106 0.55496794
00000000: 041b 693e 5ce1 883e 48ff 35be af7f 983d
00000010: c610 733e 08cc 0f3e 94c9 eabe 0b0f ef3b
00000020: 7c11 863f 2bf9 bb3e bee9 a7bf 956a 4ac0
00000030: b4e8 0e3d 9240 653f 9aeb d33f 8cd9 db3b
00000040: 6524 d1bf 40be b73d bd42 9b3e 2edb 153f
00000050: 3323 da3e d336 c33e 58ca 5b3f 74d4 7cbe
00000060: 901e 253f 8bc3 16bf 1d11 0cbf ba64 ca3e
00000070: 3569 79bf dae1 fabe a888 64bf 9fbc 33c0
00000080: 474a 643f 710d 2bbf c3dc 833e 8380 83bf
00000090: 4b2e 0ac0 5dd9 a3be 5c21 2bc0 5a92 de3e
000000a0: 6102 a23f 1e0f adc0 140e cd3f 5662 123f
000000b0: ef67 9c3e 0fd8 8b3e 535e 133f e6ec cb3f
000000c0: 8294 d4be 4edf 06c0 5eef f8ba 6233 63bf
000000d0: 8572 c6bd 1686 20be 3cdb 37c0 6504 233f
000000e0: e119 e2be b793 b73f 9ff1 0cbf d3ae c63d
000000f0: 0c1b 1abe ff29 e73e 07d1 903f fc12 a2bf
00000100: 3a1b 4cbe 3681 e6be e7f9 d33e c43f 35be
00000110: 25c8 e93e 3f67 d4be 75bc 393f 2cd2 0a3f
00000120: 9114 a93e 423a 003f 9500 5c3f 9c3c 1a40
00000130: 03c5 873d 514a 47c0 01f9 5ec0 3b7f c1bd
00000140: dd77 75bf 30e3 a93e 2f85 27bf 6dea 0dbf
00000150: e94b 0b3e aa29 b4be 11b5 dfbe d032 293f
00000160: 8942 cbbf 569a 843c 15ca cabe 4dcb d33f
00000170: f375 cbbd d823 cbbe c2ae bfbf 1ed3 253f
00000180: 31cd d23e d095 95be 6786 ec3e 59cb 1e3f
00000190: e626 e03f 3a77 fabe 7634 633f 1fb6 9bbf
000001a0: 4369 83be ca15 0940 84f8 833d d543 63bf
000001b0: 178d 3140 0705 843e 4a97 a2bf d294 af3f
000001c0: e87f b43e 5bd7 04bf afe3 ccbf 8a51 a83f
000001d0: 07f7 a53d 4bff 9abc 6ea4 953f d2ff 253f
000001e0: 48af 033f 1a7c 31c0 783c 653d e96a b53f
000001f0: 84d2 2abe df79 aebe 8ffa 0dbf 5cc7 1a3f
00000200: 41d6 1ebe 99b9 2cbf b17b 9bbe a585 223d
00000210: b07a 003e e598 383f a9ef acbf 189b ad3e
00000220: 3568 813f e2a6 c5be f0aa bc3f 1212 ecbf
00000230: 4a5f 313f 3048 093f 045b 2cc0 42a8 54bd
00000240: 63ac 2940 300f 103e 619f bb3e 2ec0 8f3e
00000250: 3379 353f 5d9c d43e 214a 30bf 538e 8d3c
00000260: 5d7c 72bf 9251 163e 27f0 f53e f358 bfbf
00000270: c338 17bc d625 b63d d1ef a13d 749e 81bf
00000280: 482e ef3f 1c47 3a3f 4020 e9bf 82dc 79bf
00000290: 4a83 473f 0adc 14bf ee45 b9bf 4d12 bebe
000002a0: 0930 06bf 12b1 f8bf 6a61 4ac0 cc07 e23e
000002b0: 153b a1c0 702e 1dbf 49e8 cc3e af58 8dc0
000002c0: 7b68 e83d 74d3 1b3f 4b0d 5fbf 602a 29bf
000002d0: 6bab 1a3f bc53 c43e daa0 bbbf 7768 27bf
000002e0: c33d c6bc 9db1 36c0 679a abc0 224a 84be
000002f0: 5d18 afbd bfe9 e23e f582 cabf 0a73 40bf
00000300: cfa2 f6bd 46f3 ea3b ac28 febe eed3 43be
00000310: ba2d 19bd 608f a33e 45f4 53bf 5f3f a33e
00000320: 1fd1 c5bf 5782 2f3e c307 213f 82ee cf3f
00000330: 019d 95be 4fb1 1dbe 1825 1d3e d7a7 d03d
00000340: 1340 ccbe 40ce b6be 806f 9bbc 18a7 4cbd
00000350: a327 5bbf 5afd a43e 6494 cb3e 41cf e03f
00000360: 857c ad3f bbc3 84be 41f9 5f3f b7fa 903e
00000370: a3b7 b63e b26a dc3e 9aed 0540 c139 a0bf
00000380: 75d6 7fbf a19c 043e ed7a 923e fe1f 0ac0
00000390: ef3d 053f 4dee 633f 4bfb 9c3f e7c9 c3be
000003a0: 4f01 e5be f7e1 b03f 65f6 b63f 30c1 d8be
000003b0: cd0a 25c0 12ff 02bf 4538 dd3e 40c6 193e
000003c0: 4fde 9b3e afa6 0e3d a14e 6f3f 3f28 35be
000003d0: 738d 04bf f936 3b3f 81e8 2e40 ec12 c1bd
000003e0: 05f0 bb3e 2e89 eb3e 5534 a73e 0f19 68c0
000003f0: 3c4a 523e aee4 85bf dc4f 6abf 6112 0e3f

sequential_3/dense_9/MatMul f4 [64, 7]
0.32862577 -0.2834133 0.067162186 0.1570834 -0.123634964 0.72901475 -0.6790335 -0.22755621
-0.08827495 0.41984245 -0.18683536 0.3043603 0.3681843 0.33811483 -0.22871439 -0.17358361
0.27957177 0.39345336 0.13003543 0.16013011 -0.003284217 0.16233659 -0.15454559 0.5065984
-0.7316723 -0.21034113 -0.5909918 0.5741929 0.00035132765 -0.34405836 0.11073189 -0.0257104
-1.0265393 0.5720292 -0.49263343 -0.43358654 -0.098858856 -0.49288756 0.5435847 -0.44681668
0.526568 0.36042038 0.20299456 -0.88824534 0.16252913 -1.0439198 -0.03913892 0.5602136
0.32512325 -0.07081822 0.5826027 -0.21025008 -0.20903654 -0.11627273 0.17415369 0.15003741
-0.3044554 -0.5674075 -0.08247075 0.31775972 0.116202846 0.6115143 0.07917111 -0.18370546
0.18021117 0.3405399 0.50351006 -0.14713547 -0.5482408 -0.09682958 -0.8561078 -0.57282984
0.57807004 -0.37889332 -0.034257554 -0.014429188 -0.23124944 -0.050005525 0.39522007 -0.5137906
0.23359354 0.49477658 0.23353323 0.08374149 -0.18578579 -0.61797076 -1.2270824 0.027073635
-0.008984683 -0.20749749 0.6910315 0.62788755 -0.76436627 0.38237852 0.26884317 -0.13088095
0.31286564 -0.1687458 0.74797916 0.25645587 0.13571858 -0.41664132 0.40184855 -0.45725593
-0.14729412 0.5116258 -0.48099986 0.33544174 -0.19859117 -0.18503574 -0.1955022 0.3822543
0.37668544 0.03388838 -0.52361345 -0.20563377 -0.04529275 0.46437594 0.31351233 0.01612878
0.52094966 0.24199764 0.40583485 -0.7547845 -0.16443594 0.14509508 -0.9028804 -0.45676503
-0.49786672 0.33742672 0.43757182 0.38036034 0.43606275 0.5143412 -0.3063032 -0.59261036
0.46435162 -0.09406118 0.3484499 0.06140431 -0.4676044 0.6037667 0.38309923 -0.36998495
0.021360386 -0.34382218 -0.0050308527 0.16434848 0.40659472 -0.35298213 0.2878867 0.009617449
-0.40645745 0.3866223 0.02627861 0.15534453 0.46416 -0.9803858 -0.97358215 0.31444132
0.22792628 0.50287205 -0.46104586 -1.195637 -0.9722369 0.08783527 0.5406681 0.44836012
0.72116244 -0.5704167 -0.3165562 0.2047324 0.11281602 -0.45591533 0.3474609 -0.16399494
-0.116972655 -0.13792233 -0.10848071 -0.28230464 0.08683193 0.11381981 0.21135934 0.45606062
-0.17494814 -0.07556872 0.3730675 -0.09195342 -0.41508916 0.63044256 -0.16248946 0.03568491
0.2866507 0.110936426 -0.31991038 0.09831636 0.11594843 0.35856175 -0.7264809 -0.24637526
-0.884312 0.61263764 0.40825814 0.19291306 -0.59136117 0.31025168 0.49870002 0.41956377
-0.061543785 -0.83121705 0.080098055 -1.1810685 0.15863712 0.28438857 -0.46678856 0.3063868
0.2576343 -0.30065292 0.19676468 0.05017595 0.05114573 0.1311006 0.3472692 0.042073246
-0.8457902 -0.4293344 0.67724437 -0.5683807 -0.042502172 -0.46189067 0.8083298 -0.019354407
0.47053975 -0.90986943 -0.34856564 0.5576921 0.33768877 -0.5114342 0.5499432 -0.53176016
-0.84560484 0.6308748 -0.41798535 0.18265975 -0.07904134 -0.19265501 0.22342667 0.17362808
-0.9107327 0.7457203 -0.49128795 -0.2783357 -1.2431554 0.0050013657 -0.4895303 0.09753347
00000000: a341 a83e 8c1b 91be 548c 893d 79da 203e
00000010: 5434 fdbd b6a0 3a3f 24d5 2dbf 7f04 69be
00000020: 7fc9 b4bd 97f5 d63e c551 3fbe 1dd5 9b3e
00000030: a782 bc3e 631d ad3e 1b34 6abe e7bf 31be
00000040: 0824 8f3e b872 c93e 0228 053e 26f9 233e
00000050: 053c 57bb 903b 263e 3341 1ebe 6fb0 013f
00000060: e04e 3bbf aa63 57be 3d4b 17bf 4efe 123f
00000070: 6632 b839 6b28 b0be 67c7 e23d 9e9e d2bc
00000080: a465 83bf 8170 123f 733a fcbe 0eff ddbe
00000090: 8376 cabd c25b fcbe 5e28 0b3f 28c5 e4be
000000a0: 29cd 063f 0589 b83e cedd 4f3e 0c64 63bf
000000b0: 096e 263e 2a9f 85bf 2250 20bd 296a 0f3f
000000c0: 8e76 a63e 2509 91bd 7325 153f cc4b 57be
000000d0: ad0d 56be 6620 eebd 5855 323e 68a3 193e
000000e0: 94e1 9bbe 9e41 11bf 6de6 a8bd 67b1 a23e
000000f0: c2fb ed3d 338c 1c3f 7724 a23d 491d 3cbe
00000100: 4789 383e 3f5b ae3e 09e6 003f aeaa 16be
00000110: 8259 0cbf 964e c6bd e129 5bbf faa4 12bf
00000120: 66fc 133f 4efe c1be a651 0cbd 6768 6cbc
00000130: a7cc 6cbe 98d2 4cbd 495a ca3e c887 03bf
00000140: 2533 6f3e 5b53 fd3e 5623 6f3e a980 ab3d
00000150: a13e 3ebe 5533 1ebf 0911 9dbf 87c9 dd3c
00000160: 7e34 13bc 397a 54be 71e7 303f 3dbd 203f
00000170: 82ad 43bf 1ec7 c33e d0a5 893e a805 06be
00000180: ed2f a03e b3cb 2cbe 907b 3f3f 2f4e 833e
00000190: d0f9 0a3e 0352 d5be 18bf cd3e 731d eabe
000001a0: 45d4 16be e9f9 023f 9d45 f6be 05bf ab3e
000001b0: 7c5b 4bbe 027a 3dbe bb31 48be d6b6 c33e
000001c0: eadc c03e 8bce 0a3d 880b 06bf a991 52be
000001d0: e484 39bd afc2 ed3e b084 a03e 8120 843c
000001e0: f55c 053f 3bce 773e 96c9 cf3e 8f39 41bf
000001f0: e561 28be ce93 143e 2b23 67bf 1bdd e9be
00000200: 63e8 febe 32c3 ac3e 6a09 e03e 97be c23e
00000210: 9e43 df3e ddab 033f c6d3 9cbe 50b5 17bf
00000220: 7fbf ed3e 26a3 c0bd 0668 b23e 1683 7b3d
00000230: d869 efbe 7490 1a3f 9525 c43e ab6e bdbe
00000240: fafb ae3c 7609 b0be dad9 a4bb f84a 283e
00000250: 2f2d d03e 13ba b4be e365 933e 8192 1d3c
00000260: 311b d0be 5cf3 c53e 3d46 d73c a312 1f3e
00000270: 61a6 ed3e 90fa 7abf ae3c 79bf 74fe a03e
00000280: 8265 693e 39bc 003f 340e ecbe a20a 99bf
00000290: 84e4 78bf fae2 b33d 3969 0a3f 758f e53e
000002a0: 1a9e 383f d406 12bf a713 a2be 5fa5 513e
000002b0: 160c e73d bc6d e9be 65e6 b13e 4aee 27be
000002c0: 5c8f efbd 833b 0dbe 222b debd 3c8a 90be
000002d0: f0d4 b13d 5c1a e93d 956e 583e c780 e93e
000002e0: 9b25 33be c6c3 9abd b402 bf3e 1352 bcbd
000002f0: 9186 d4be af64 213f a363 26be 572a 123d
00000300: e1c3 923e a332 e33d 4bcb a3be 165a c93d
00000310: 5f76 ed3d 6895 b73e a7fa 39bf cc49 7cbe
00000320: 4562 62bf d2d5 1c3f 3607 d13e 008b 453e
00000330: 7263 17bf 4fd9 9e3e 9c55 ff3e 10d1 d63e
00000340: 5615 7cbd a4ca 54bf 730a a43d 412d 97bf
00000350: c571 223e 619b 913e e9fe eebe bbde 9c3e
00000360: a5e8 833e 2eef 99be ae7c 493e 4c85 4d3d
00000370: 2f7e 513d 3c3f 063e 45cd b13e ff54 2c3d
00000380: b585 58bf b8d1 dbbe e35f 2d3f 6681 11bf
00000390: c216 2ebd ef7c ecbe b4ee 4e3f 228d 9ebc
000003a0: 96ea f03e 34ed 68bf 3277 b2be e9c4 0e3f
000003b0: 8be5 ac3e 5aed 02bf 14c9 0c3f 6f21 08bf
000003c0: 8f79 58bf 0381 213f 2d02 d6be 280b 3b3e
000003d0: 6de0 a1bd 5b47 45be f6c9 643e 8fcb 313e
000003e0: c725 69bf 87e7 3e3f 188a fbbe 0482 8ebe
000003f0: b71f 9fbf 7fe2 a33b b7a3 fabe a1bf c73d
